…
ape[1]:y*filters.shape[1]+filters.shape[1]] = filters[:,:,i] plt.figure(figsize = (10,20)) plt.imshow(newimage) plt.axis('off')Code language: Python (python) layer_dict = dict([(layer.name, layer) for layer in model.layers])Code language: Python (python) Skin Cancer Classification Model Summary To see the summary of our trained model we will execute the code below model.summary()Code language: Python (python) _________________________________________________________________ Layer (type) Output Shape Param # ================================================================= input_1 (InputLayer) (None, 128, 128, 3) 0 _________________________________________________________________ block1_conv1 (Conv2D) (None, 128, 128, 64) 1792 _________________________________________________________________ block1_conv2 (Conv2D) (None, 128, 128, 64) 36928 _________________________________________________________________ block1_pool (MaxPooling2D) (None, 64, 64, 64) 0 _________________________________________________________________ block2_conv1 (Conv2D) (None, 64, 64, 128) 73856 _________________________________________________________________ block2_conv2 (Conv2D) (None, 64, 64, 128) 147584 _________________________________________________________________ block2_pool (MaxPooling2D) (None, 32, 32, 128) 0 _________________________________________________________________ block3_conv1 (Conv2D) (None, 32, 32, 256) 295168 _________________________________________________________________ block3_conv2 (Conv2D) (None, 32, 32, 256) 590080 _________________________________________________________________ block3_conv3 (Conv2D) (None, 32, 32, 256) 590080 _________________________________________________________________ block3_pool (MaxPooling2D) (None, 16, 16, 256) 0 _________________________________________________________________ block4_conv1 (Conv2D) (None, 16, 16, 512) 1180160 _________________________________________________________________ block4_conv2 (Conv2D) (None, 16, 16, 512) 2359808 _________________________________________________________________ block4_conv3 (Conv2D) (None, 16, 16, 512) 2359808 _________________________________________________________________ block4_pool (MaxPooling2D) (None, 8, 8, 512) 0 _________________________________________________________________ block5_conv1 (Conv2D) (None, 8, 8, 512) 2359808 _________________________________________________________________ block5_conv2 (Conv2D) (None, 8, 8, 512) 2359808 _________________________________________________________________ block5_conv3 (Conv2D) (None, 8, 8, 512) 2359808 _________________________________________________________________ block5_pool (MaxPooling2D) (None, 4, 4, 512) 0 _________________________________________________________________ sequential_3 (Sequential) (None, 1) 2097665 ================================================================= Total params: 16,812,353 Trainable params: 16,812,353 Non-trainable params: 0 Now lets visualize the output of our trained model activ_benign = activ_viewer(model,'block2_conv1',imgb.reshape(1,128,128,3)) img_benign = deprocess_image(activ_benign[0]) plot_filters(img_benign[0]) plt.figure(figsize=(20,20)) for f in range(128): plt.s
…
1]), MaxPooling2D(2), Conv2D(32, 3, padding='same', kernel_initializer='he_uniform', activation='relu'), MaxPooling2D(2), Flatten(), Dense(128, kernel_initializer='he_uniform',activation = 'relu'), Dense(2, activation = 'softmax'), ])Code language: Python (python) Now, before moving forward, let’s have a quick look at the summary of our CNN Model: model.summary()Code language: Python (python) Model: ""sequential"" _________________________________________________________________ Layer (type) Output Shape Param # ================================================================= conv2d (Conv2D) (None, 96, 96, 32) 320 _________________________________________________________________ max_pooling2d (MaxPooling2D) (None, 48, 48, 32) 0 _________________________________________________________________ conv2d_1 (Conv2D) (None, 48, 48, 32) 9248 _________________________________________________________________ max_pooling2d_1 (MaxPooling2 (None, 24, 24, 32) 0 _________________________________________________________________ flatten (Flatten) (None, 18432) 0 _________________________________________________________________ dense (Dense) (None, 128) 2359424 _________________________________________________________________ dense_1 (Dense) (None, 2) 258 ================================================================= Total params: 2,369,250 Trainable params: 2,369,250 Non-trainable params: 0 Now, I will compile the model using Adam optimizers, with a learning rate of 10%, and to prevent our CNN model from overfitting, I will be using the early_stopping_call method: model.compile(optimizer = optimizers.Adam(1e-3), loss = 'categorical_crossentrop
…
al_crossentropy"", metrics=[""accuracy""]) #sgd = SGD(lr=learning_rate, decay=decay_speed, momentum=momentum, nesterov=True) # rms = keras.optimizers.RMSprop(lr=learning_rate, momentum=momentum) # model.compile(optimizer=rms, # loss=loss_function, # metrics=[""accuracy""]) # print(""Model compiled! \n"") view raw landmark_detection.py hosted with ❤ by GitHub View this gist on GitHub Model: ""sequential""_________________________________________________________________Layer (type) Output Shape Param # =================================================================batch_normalization (BatchNo (None, 224, 224, 3) 12 _________________________________________________________________block1_conv1 (Conv2D) (None, 224, 224, 64) 1792 _________________________________________________________________block1_conv2 (Conv2D) (None, 224, 224, 64) 36928 _________________________________________________________________block1_pool (MaxPooling2D) (None, 112, 112, 64) 0 _________________________________________________________________block2_conv1 (Conv2D) (None, 112, 112, 128) 73856 _________________________________________________________________block2_conv2 (Conv2D) (None, 112, 112, 128) 147584 _________________________________________________________________block2_pool (MaxPooling2D) (None, 56, 56, 128) 0 _________________________________________________________________block3_conv1 (Conv2D) (None, 56, 56, 256) 295168 _________________________________________________________________block3_conv2 (Conv2D) (None, 56, 56, 256) 590080 _________________________________________________________________block3_conv3 (Conv2D) (None, 56, 56, 256) 590080 _________________________________________________________________block3_conv4 (Conv2D) (None, 56, 56, 256) 590080 _________________________________________________________________block3_pool (MaxPooling2D) (None, 28, 28, 256) 0 _________________________________________________________________block4_conv1 (Conv2D) (None, 28, 28, 512) 1180160 _________________________________________________________________block4_conv2 (Conv2D) (None, 28, 28, 512) 2359808 _________________________________________________________________block4_conv3 (Conv2D) (None, 28, 28, 512) 2359808 _________________________________________________________________block4_conv4 (Conv2D) (None, 28, 28, 512) 2359808 _________________________________________________________________block4_pool (MaxPooling2D) (None, 14, 14, 512) 0 _________________________________________________________________block5_conv1 (Conv2D) (None, 14, 14, 512) 2359808 _________________________________________________________________block5_conv2 (Conv2D) (None, 14, 14, 512) 2359808 _________________________________________________________________block5_conv3 (Conv2D) (None, 14, 14, 512) 2359808 _________________________________________________________________block5_conv4 (Conv2D) (None, 14, 14, 512) 2359808 _________________________________________________________________block5_pool (MaxPooling2D) (None, 7, 7, 512) 0 _________________________________________________________________flatten (Flatten) (None, 25088) 0 _________________________________________________________________fc1 (Dense) (None, 4096) 102764544 _________________________________________________________________fc2 (Dense) (None, 4096) 16781312 _________________________________________________________________dense (Dense) (None, 1020) 4178940 =================================================================Total params: 143,749,192Trainable params: 143,749,186Non-trainable params: 6 ### Function used for processing the data, fitted into a data generator. def get_image_from_number(num, df): fname, label = df.iloc[num,:] fname = fname + "".jpg"" f1 = fname[0] f2 = fname[1] f3 = fname[2] path = os.path.join(f1,f2,f3,fname) im = cv2.imrea
…
